pytorch/modelNN.pth (torch, 39503 bytes, 16 tensors)

first_layer.weight f4 [64, 9]
0	0xbe8db6f2	-0.2767864
1	0xbd494892	-0.049141474
2	0xbea3c443	-0.31985673
3	0x3b8391b7	0.0040151733
4	0xbe62d5ee	-0.2215192
5	0xbeb05f1d	-0.34447566
6	0xbe0af58b	-0.1357023
7	0xbc897d21	-0.016783299
8	0xbd232ed1	-0.03983957
9	0xbe810c21	-0.25204566
10	0xbe41b005	-0.18914802
11	0xbdeb85b4	-0.11500111
12	0xbea3a656	-0.31962842
13	0x3cd069bb	0.025441041
14	0xbe3a3b90	-0.18186784
15	0xbe3efe78	-0.1865176
16	0x3d25296e	0.040322714
17	0xbe7e3f4e	-0.24828836
18	0xbe96505d	-0.29358187
19	0xbe015c6c	-0.12632912
20	0xbe9f94cb	-0.31168208
21	0xbefe2054	-0.4963404
22	0xbec6b678	-0.38811088
23	0xbe874f4a	-0.2642768
24	0x3d9b16d6	0.07572715
25	0xbe93d048	-0.28869843
26	0x3c30e5f9	0.010797017
27	0xbe592033	-0.2120369
28	0xbdbb3eb6	-0.091428205
29	0x3e41c5c2	0.18923095
30	0xbc821b90	-0.015882283
31	0xbe1a9c40	-0.15098667
32	0x3e94a1dd	0.29029742
33	0xbdbaac50	-0.09114897
34	0x3d844c40	0.06459856
35	0xbcfa0b80	-0.030523062
36	0x3ea55d25	0.32297626
37	0xbdc8dbbc	-0.09807536
38	0x3e0dd4fe	0.13850781
39	0xbe1a40f3	-0.15063839
40	0xbea526be	-0.3225612
41	0xbddf572c	-0.109052986
42	0xbe91aa86	-0.28450412
43	0xbe7d41cb	-0.2473213
44	0xbea4230c	-0.3205799
45	0xbecfa55e	-0.40555853
46	0x3b290319	0.00257892
47	0xbebbb026	-0.36657828
48	0xbec1a09e	-0.37817854
49	0x3e0b35a7	0.13594685
50	0x3ec294e7	0.38004228
51	0x3e1ed817	0.15512119
52	0xbf0d8373	-0.552787
53	0xbe63a7bc	-0.22231954
54	0xbea273e9	-0.31729057
55	0xbcd5fbfb	-0.02612113
56	0xbe540ac7	-0.20707236
57	0xbcde9b7e	-0.027173754
58	0xbe1183ba	-0.14210406
59	0xbe5ec867	-0.21756135
60	0xbd91007e	-0.07080172
61	0xbec1e312	-0.37868553
62	0xbe302a51	-0.17203642
63	0x3ce4e74f	0.027942328
64	0xbcc2d5ce	-0.02378359
65	0xbea84a99	-0.32869413
66	0x3e9eedb9	0.31040743
67	0xbeb84b58	-0.35994983
68	0xbeacd2c8	-0.33754563
69	0xbd31dbf3	-0.04342265
70	0x3c85f222	0.01635081
71	0x3d808aab	0.06276449
72	0xbe995fe4	-0.2995597
73	0xbdb98a76	-0.090596125
74	0x3c8acb70	0.01694271
75	0xbda18af4	-0.07887831
76	0xbe8c852b	-0.2744535
77	0xbddef426	-0.10886411
78	0xbe31300e	-0.17303488
79	0xbd619a78	-0.055078954
80	0x3e90d095	0.28284135
81	0xbd39a4b9	-0.045323107
82	0x3c430975	0.01190411
83	0xbe063e17	-0.13109623
84	0xbd49d2ec	-0.049273416
85	0x3e3f431d	0.18677945
86	0xbe050f2d	-0.1299407
87	0xbe9b54a5	-0.30338016
88	0xbeb59a33	-0.35469207
89	0x3ddab7f1	0.10679615
90	0x3e220aa8	0.15824378
91	0xbd9e83e0	-0.07739997
92	0xbde59cdc	-0.11211559
93	0xbe32bc30	-0.174546
94	0xbdbdd206	-0.092685744
95	0xbea5521e	-0.32289213
96	0xbe9847d7	-0.2974231
97	0xbe901a43	-0.28145036
98	0x3d037360	0.032092452
99	0xbe7bea4a	-0.24601093
100	0xbd86ae4e	-0.06576215
101	0xbe7aac8f	-0.24479888
102	0xbf8161cf	-1.0107974
103	0x3e72d8a0	0.23715448
104	0x3f065b03	0.5248262
105	0x3cedd87d	0.029033894
106	0xbca904e0	-0.020632207
107	0xbe400ba2	-0.18754438
108	0xbe72acdd	-0.23698755
109	0xbc8e03b4	-0.01733575
110	0xbf129d68	-0.5727143
111	0xbf7ca958	-0.986959
112	0xbe2ddb61	-0.16978218
113	0x3d378adf	0.044810172
114	0x3d7b4e11	0.061353747
115	0xbe0d42ca	-0.1379501
116	0xbee376d4	-0.44426596
117	0xbd94d360	-0.07266879
118	0xbec58563	-0.38578328
119	0xbeb93c06	-0.36178607
120	0xbbc548b4	-0.00602063
121	0x3e11650d	0.14198704
122	0xbedb20dd	-0.4279851
123	0x3de1b8fb	0.1102161
124	0xbeccf271	-0.40028718
125	0x3e9f900d	0.3116459
126	0x3e5500aa	0.20801035
127	0xbe33ef53	-0.17571764
128	0x3e447c0a	0.19187942
129	0x3ea9b397	0.3314483
130	0xbd944d64	-0.072413236
131	0x3ea3e359	0.3200939
132	0xbe81c0a2	-0.2534228
133	0xbcc7d030	-0.024391264
134	0x3e9c1f83	0.30492792
135	0x3e02fce1	0.12791778
136	0xbdbf7951	-0.09349311
137	0xbeaec28f	-0.3413281
138	0x3b0fe7c7	0.0021958218
139	0x3e5bd795	0.21468957
140	0xbeda62ce	-0.42653507
141	0xbc3b0ea6	-0.011417067
142	0xbde002e9	-0.10938055
143	0xbe306ee6	-0.17229804
144	0x3f2d2bd0	0.6764498
145	0xb9b55fcc	-0.00034594384
146	0x3c204e83	0.009784344
147	0x405d08a0	3.4536514
148	0xbfdb6c82	-1.7142489
149	0xc00fa71c	-2.2445745
150	0x3d84d4a2	0.06485869
151	0xbd155470	-0.03645748
152	0xbcbb397d	-0.022854561
153	0xbe781326	-0.24226055
154	0xbd7a97e0	-0.061179996
155	0x3e7ff68e	0.24996397
156	0x3e8bbb0d	0.27291146
157	0x3e41efb2	0.18939093
158	0x3d698d38	0.057019442
159	0xbea6dd64	-0.32590783
160	0xbe04ebb6	-0.12980542
161	0x3d62e0a0	0.05539
162	0xbef044e2	-0.46927553
163	0xbd7b477f	-0.06134748
164	0xbe1bb5b0	-0.15206027
165	0xbf2fb53b	-0.6863591
166	0x3f1c358f	0.61019224
167	0xbe96f2e0	-0.29482174
168	0xbec1c293	-0.3784376
169	0xbef43a7c	-0.4770087
170	0xbd74503a	-0.059646823
171	0xbe90a460	-0.28250408
172	0xbf0f9cf2	-0.56098855
173	0x3e07da0a	0.13266769
174	0xbe0bba00	-0.13645172
175	0xbdece49e	-0.11567043
176	0xbe92cc3e	-0.2867145
177	0x3e156c8c	0.14592189
178	0xbebdfdcc	-0.37107694
179	0xbeb33611	-0.35002187
180	0xbf371803	-0.71521014
181	0xbdd44286	-0.10364251
182	0x3f2a8e14	0.66623044
183	0xc04787f4	-3.117673
184	0x3fcb997c	1.5906215
185	0x400bae60	2.182518
186	0x3e2330ff	0.1593666
187	0x3e8661f5	0.2624661
188	0xbe623285	-0.22089584
189	0xbe91dce9	-0.28488854
190	0xbdcb73bd	-0.09934185
191	0xbe2dbdac	-0.16966885
192	0xbde0ce4a	-0.109768465
193	0xbcd9f6bf	-0.026606916
194	0xbe547d1f	-0.20750855
195	0xbd956591	-0.07294763
196	0xbe22a0f1	-0.15881707
197	0x3e939655	0.28825632
198	0xbd2b5520	-0.04182923
199	0xbe4c804b	-0.19970815
200	0xbe7442a0	-0.2385354
201	0xbe46cffb	-0.19415276
202	0xbea497d6	-0.32147092
203	0xbe83f207	-0.2577059
204	0xbe9f1250	-0.3106866
205	0xbe2b4b90	-0.16728044
206	0xbc929f50	-0.017898232
207	0x3c9c0de4	0.019049592
208	0xbc88ee50	-0.016715199
209	0x3e139cc1	0.14415266
210	0x3d53c24a	0.05169896
211	0xbe9a9bb9	-0.30196932
212	0xbead15fc	-0.33805835
213	0xbea08761	-0.31353286
214	0x3e557e0c	0.20848864
215	0xbe823608	-0.25431848
216	0x3d974f6b	0.07388195
217	0xbd9e4416	-0.0772783
218	0xbe554fc8	-0.20831215
219	0x3ec25a2b	0.37959418
220	0xbe6040e2	-0.21899751
221	0x3e13b403	0.14424138
222	0xbd9f69b6	-0.07783835
223	0x3dc2e096	0.095154926
224	0x3dd3a01a	0.10333271
225	0x3d805148	0.06265503
226	0xbe990052	-0.29883057
227	0x3e648111	0.2231486
228	0x3da036fc	0.078229874
229	0x3dfa9c7b	0.122368775
230	0xbcc43196	-0.023949426
231	0xbe405c7d	-0.18785281
232	0x3e34506c	0.17608804
233	0x3d795430	0.060871303
234	0xbecce195	-0.40015855
235	0xbca61ea5	-0.020278284
236	0xbccd1cb4	-0.0250381
237	0xbe64fcf6	-0.22362122
238	0xbe6cd309	-0.23127379
239	0xbed2c73b	-0.41167626
240	0xbea8e990	-0.32990694
241	0xbeb60818	-0.3555305
242	0x3cc8dcc8	0.02451934
243	0xbd261a1c	-0.040552244
244	0x3c9ccd5a	0.019140888
245	0xbeab6457	-0.3347499
246	0xbf158e94	-0.5842068
247	0xbeeb0a88	-0.45906472
248	0xbe4f9ee7	-0.2027546
249	0xbe32ddf9	-0.17467488
250	0xbf2b8f35	-0.6701539
251	0xbe20316c	-0.15643853
252	0xbe20d5be	-0.15706536
253	0xbcdfd7ff	-0.027324675
254	0xbf04b329	-0.51835877
255	0xbcc847e0	-0.024448335

first_layer.bias f4 [64]
0	0x3e4db618	0.20088995
1	0xbebe6be7	-0.37191698
2	0xbeeed428	-0.46646237
3	0xbce07fb0	-0.027404636
4	0x3e9a7cb9	0.3017328
5	0xbed19e2a	-0.40940982
6	0xbe6b1602	-0.22957614
7	0xbc9ccbf8	-0.019140229
8	0x3e9622ab	0.29323325
9	0xbd89d3d5	-0.06729857
10	0x3c1f41a0	0.009720236
11	0xbebd2890	-0.3694501
12	0xbe71e1ed	-0.2362134
13	0xbe9db5e7	-0.30802843
14	0x3e5159fa	0.2044448
15	0xbe0fc525	-0.14040048
16	0xbdd32f99	-0.10311813
17	0x3e4b3e42	0.19847968
18	0xbe6bc088	-0.23022664
19	0xbe79c5bb	-0.24391834
20	0x3f8612c9	1.0474483
21	0xbdd30fd2	-0.10305752
22	0xbd7b9600	-0.061422348
23	0x3e360d1e	0.17778441
24	0xbde75d16	-0.112970516
25	0xbe80388b	-0.2504314
26	0xbec8b3a0	-0.39199543
27	0xbec192e6	-0.37807387
28	0xbeb4ca1a	-0.3531044
29	0xbf23d71a	-0.64000094
30	0xbe844132	-0.2583099
31	0xbe846555	-0.2585856
32	0xbe7f262a	-0.24916902
33	0x3e8c0803	0.27349862
34	0xbc8e25d0	-0.017352015
35	0x3cd88810	0.026432067
36	0xbed68b4b	-0.41903147
37	0x3e5ed43a	0.21760646
38	0xbe3cf710	-0.18453622
39	0xbe7c7508	-0.24654019
40	0xbe583215	-0.21112855
41	0x3ea4a528	0.32157254
42	0x3bd71794	0.00656409
43	0xbee6edc1	-0.45103267
44	0x3debb843	0.115097545
45	0xbe369470	-0.17830062
46	0xbe187ea3	-0.14892058
47	0x3e52a422	0.20570424
48	0x3e2e2e3a	0.17009822
49	0xbed6e8d8	-0.4197452
50	0xbf47bbc0	-0.7802086
51	0x3e22f546	0.15913877
52	0xbed1a508	-0.4094622
53	0xbe29053d	-0.16505904
54	0xbe5a9b73	-0.21348362
55	0x3eaa0ae5	0.33211437
56	0xbecb047a	-0.39651853
57	0xbd3acb0a	-0.04560379
58	0x3e3dc7de	0.18533275
59	0x3e1562d8	0.14588487
60	0xbdb9d204	-0.090732604
61	0xbd8fec80	-0.07027531
62	0x3c609be1	0.013709039
63	0xbf1350e0	-0.5754528

hidden_layers.0.weight f4 [64, 64]
0	0x3de3b558	0.11118573
1	0x3daa5f3a	0.08318944
2	0xbcd64ebc	-0.02616059
3	0xbdd9c68e	-0.106335744
4	0x3d7394d8	0.05946812
5	0x3c494e43	0.012286725
6	0x3c861753	0.016368544
7	0xbc638e37	-0.013888887
8	0xbcd5cef0	-0.026099652
9	0xbdcc514e	-0.09976445
10	0x3d9a1df8	0.07525247
11	0xbc12eed7	-0.008968077
12	0xbd96b91c	-0.073595256
13	0xbde39b87	-0.11113649
14	0xbdb03492	-0.08603777
15	0xbdee6877	-0.11641019
16	0xbddbb0b9	-0.107270665
17	0xbd9f6396	-0.077826664
18	0xbe414664	-0.18874508
19	0xbdcec3bb	-0.100959264
20	0xbca2324e	-0.019799378
21	0xbdac8029	-0.08422882
22	0x3dbe4fb4	0.09292546
23	0xbdf38af8	-0.118917406
24	0x3d91c62e	0.07117878
25	0x3c6de990	0.014521018
26	0xbdf7ca23	-0.120991014
27	0xbd8b83eb	-0.06812271
28	0xbc050851	-0.008119659
29	0x3cff9988	0.03120114
30	0xbe0882e7	-0.13331185
31	0xbe4e9baf	-0.20176576
32	0xbcffdbf3	-0.03123281
33	0xbcba9de8	-0.022780374
34	0xbd445f58	-0.04794249
35	0xbb9cb1e0	-0.0047819465
36	0xbcfa78c8	-0.030575171
37	0x3df333d2	0.11875118
38	0xbdb5175a	-0.088423446
39	0xbda1511a	-0.07876797
40	0xbc93c47c	-0.018038027
41	0xbd5b4833	-0.05353565
42	0xbe51a0b7	-0.20471464
43	0xbd6235ee	-0.055227213
44	0xbb1f7480	-0.0024330914
45	0x3c85b470	0.01632139
46	0x3b7be05e	0.0038433294
47	0xbdff0563	-0.12452199
48	0x3cd76fd0	0.026298434
49	0xbcf4b626	-0.029872011
50	0xbdea1925	-0.11430577
51	0xbdd3d086	-0.10342507
52	0xbd4b7b9f	-0.04967844
53	0xbe05bd6c	-0.1306054
54	0xbdbf4337	-0.09338992
55	0x3dfc0652	0.12305893
56	0x3bdd7660	0.006758496
57	0xbde0309e	-0.10946773
58	0xbd314e71	-0.0432877
59	0xbd6a1eb0	-0.057158172
60	0xbcca56eb	-0.024699649
61	0xbd7ef9e4	-0.062250033
62	0xbe0fabef	-0.14030431
63	0xbe568580	-0.20949364
64	0x3ce932ee	0.028466668
65	0x3c06a020	0.008216888
66	0xbe11a4bc	-0.14222997
67	0x3c24fbc0	0.0100697875
68	0x3d883dbc	0.066524
69	0x3d7fe1fd	0.06247138
70	0xbd6fdd95	-0.058560926
71	0xbdc7b1c1	-0.09750701
72	0x3cf573c0	0.02996242
73	0x3d0990ab	0.03358523
74	0x3b0f4480	0.0021860898
75	0xbe1d8ce7	-0.15385781
76	0xbd56712f	-0.052354034
77	0x3d662a99	0.056192968
78	0xbdde37be	-0.10850476
79	0xbda4d441	-0.08048297
80	0x3d0abdba	0.033872344
81	0x3d6a9328	0.057269245
82	0xbe0191e6	-0.12653312
83	0x3d9c1f87	0.07623201
84	0xbe39661e	-0.18105361
85	0xbdcb641e	-0.09931205
86	0xbdaaff46	-0.08349471
87	0xbce0860c	-0.027407669
88	0xbca29663	-0.0198471
89	0xbd644d58	-0.055737823
90	0xbd755e97	-0.05990466
91	0x3d868d04	0.06569865
92	0x3caaeb70	0.020864218
93	0xbdbe7d87	-0.09301286
94	0x3d786874	0.06064649
95	0xbe3d59b6	-0.18491253
96	0xbdfee01d	-0.1244509
97	0xbb367f00	-0.0027846694
98	0xbd09d038	-0.03364584
99	0xbdfd4ff8	-0.123687685
100	0xba642d00	-0.0008704215
101	0x3d818c70	0.063256145
102	0xbdb6a370	-0.08917892
103	0x3d32ee68	0.043684393
104	0xbd9627d0	-0.073318124
105	0xbd567ed0	-0.05236703
106	0xbd96ea26	-0.07368879
107	0xbdc38d9d	-0.09548495
108	0xbebe64bd	-0.37186232
109	0xbd772374	-0.060336545
110	0x3d7380bd	0.059448946
111	0x3d5c6619	0.053808305
112	0xbd93989e	-0.07206844
113	0xbdff9649	-0.124798365
114	0xbb81ccc1	-0.003961176
115	0xbdc4fbc1	-0.09618331
116	0xbe21c4ea	-0.15797773
117	0x3e07d73d	0.132657
118	0x3d8eed31	0.069788344
119	0x3d284120	0.041077733
120	0xbdd7d9a2	-0.10539557
121	0xbd403fd1	-0.04693586
122	0xbc4e0b02	-0.012575867
123	0xbdc885b6	-0.09791128
124	0x3d6c0d88	0.057630092
125	0xbdd9ea06	-0.106403396
126	0xbc9250d4	-0.017860807
127	0xbe0eeebf	-0.13958262
128	0xbd508402	-0.050907142
129	0xbdafb180	-0.08578777
130	0xbdf9b8c5	-0.12193445
131	0xbdcf2070	-0.10113609
132	0xbd15697c	-0.03647755
133	0x3d6b454a	0.057439126
134	0x3d5eeba5	0.054423947
135	0xbda9c2c8	-0.08289105
136	0x3d7e9a00	0.062158585
137	0xbe4acd02	-0.19804767
138	0x3c82ed70	0.01598236
139	0x3cac0f1b	0.021003297
140	0x3d5e5877	0.054283585
141	0xbd8bab62	-0.06819798
142	0xbdd30b4e	-0.103048906
143	0xbe7350d6	-0.23761305
144	0x3e27384d	0.16330071
145	0x3dab2454	0.083565384
146	0x3dd5ce80	0.104397774
147	0xbd928240	-0.071537495
148	0xbf3481ea	-0.70510733
149	0xbca02bb1	-0.019552084
150	0xbdf24d62	-0.11831166
151	0x3c7b3ffa	0.015335077
152	0xbd84a82c	-0.06477389
153	0x3d5ec645	0.054388303
154	0x3d921ca0	0.07134366
155	0xbe013ed4	-0.12621623
156	0x3d3acb9f	0.045604344
157	0xbdbcb2e7	-0.092138104
158	0x3bbfdb2e	0.0058549857
159	0x3c5360a6	0.012901461
160	0xbd4fb233	-0.050707053
161	0x3d3943dc	0.04523073
162	0xbcb5f708	-0.02221252
163	0xbcbc27d0	-0.022968203
164	0xbe193abe	-0.14963815
165	0x3debf7e2	0.11521889
166	0x3d92634a	0.07147844
167	0x3dc06a54	0.093952805
168	0xbd07bcfa	-0.033139206
169	0xbf1b21dc	-0.6059854
170	0x3e284fdf	0.16436718
171	0xbcd51c52	-0.02601448
172	0xbea56770	-0.3230548
173	0xbba87cc0	-0.0051418245
174	0x3c3db3c3	0.011578503
175	0xbd2ea92b	-0.0426418
176	0xbde3410a	-0.110963896
177	0x3e18225c	0.14856857
178	0xbdf82637	-0.12116664
179	0xbbb7962c	-0.0056026187
180	0x3ddd8e1c	0.10818121
181	0x3dabe784	0.083937675
182	0xbdaef7a0	-0.085433245
183	0xbcb81e40	-0.022475362
184	0x3cf9da06	0.03049947
185	0xbd391ca1	-0.04519332
186	0x3d2d7db9	0.042356227
187	0xbddc09b4	-0.10744038
188	0xbca56b6c	-0.020192824
189	0xbab2a200	-0.0013628602
190	0xbd1d3533	-0.038380813
191	0xbea15c9a	-0.31515962
192	0x3d830c1e	0.063987955
193	0xbda79baa	-0.081839874
194	0xbe235087	-0.15948687
195	0xbde0e210	-0.10980618
196	0xbcc64ff8	-0.024208054
197	0xbd3ca4b7	-0.04605552
198	0x3ddeea32	0.10884513
199	0x3c0aa950	0.008463219
200	0x3ce05dc8	0.027388468
201	0xbd97cda6	-0.07412271
202	0xbd8f2bce	-0.06990777
203	0xbe3bb6f5	-0.18331511
204	0xbebb4515	-0.36576143
205	0x3d256790	0.040381968
206	0xbc963b98	-0.018338963
207	0x3dabedda	0.08394976
208	0xbedffd5a	-0.4374798
209	0xbdc99154	-0.09842172
210	0xbea8ac20	-0.3294382
211	0x3db64490	0.08899796
212	0xbdb4f57e	-0.088358864
213	0x3d855634	0.065105826
214	0xbcc74708	-0.024325863
215	0x3b175400	0.002309084
216	0xbcd56670	-0.026049823
217	0xbc8de458	-0.017320797
218	0x3df2df78	0.118590295
219	0xbdb13490	-0.086526036
220	0xbd97105c	-0.07376167
221	0xbdb7553c	-0.08951804
222	0xbdb5f51a	-0.0888464
223	0xbd991f04	-0.07476619
224	0xbe851f0f	-0.26000258
225	0x3d241afc	0.040064797
226	0xbdb877bc	-0.090072125
227	0xbdf42d6c	-0.11922726
228	0xbd94d772	-0.072676554
229	0xbdd4a7ea	-0.103835896
230	0x3d7ca5d0	0.06168157
231	0x3dcdaa0c	0.100421995
232	0x3dbbc544	0.09168485
233	0xbc0df823	-0.008665117
234	0xbe7b3acf	-0.24534152
235	0xbe1d9fcd	-0.1539299
236	0xbd5173e4	-0.051135913
237	0x3c56e7b0	0.013116762
238	0xbe5ca538	-0.21547401
239	0x3cf977e0	0.030452669
240	0x3c82a1b0	0.01594624
241	0xbe0c5b9f	-0.13706826
242	0xbd3210a0	-0.043472886
243	0xbdac08cc	-0.08400115
244	0xbea8fe7b	-0.33006653
245	0x3ce043d0	0.027376086
246	0x3da21cca	0.07915647
247	0xbdca7526	-0.098856255
248	0xbde01864	-0.10942152
249	0xbe37f6d8	-0.17965257
250	0xbd8d7116	-0.06906335
251	0xbd27b590	-0.040944636
252	0x3cb4c058	0.022064373
253	0x3d880080	0.0664072
254	0xbdcad0aa	-0.09903081
255	0xbe09047c	-0.13380617

hidden_layers.0.bias f4 [64]
0	0xbe46102e	-0.1934211
1	0x3cd5de05	0.026106844
2	0x3e575aec	0.21030778
3	0xbe4e22e6	-0.201305
4	0xbe91c69d	-0.28471842
5	0xbdf30b44	-0.11867383
6	0x3d24172d	0.040061165
7	0xbe426784	-0.189848
8	0x3d73f46c	0.05955927
9	0x3df796cc	0.12089309
10	0xbe455bc0	-0.19273281
11	0xbd80d5fd	-0.06290815
12	0xbd8c39a5	-0.06846932
13	0xbe20af2d	-0.15691824
14	0xbcab4a7b	-0.020909538
15	0xbdb30a75	-0.08742229
16	0xbc15c05d	-0.009140101
17	0xbda6a9ba	-0.081378415
18	0xb935ad7c	-0.00017326133
19	0xbe345e76	-0.17614159
20	0x3d85214b	0.06500491
21	0xbe0d2d1f	-0.13786744
22	0x3eb51e9d	0.3537492
23	0xbe674601	-0.22585298
24	0xbd535b74	-0.05160089
25	0xbdb53844	-0.088486224
26	0x3ced91e3	0.029000228
27	0xbde62422	-0.112373605
28	0xbe345ce2	-0.17613557
29	0xbd812b69	-0.06307108
30	0xbe16a9c3	-0.14713196
31	0xbd1a2f09	-0.037642512
32	0xbe96b6cc	-0.29436338
33	0xbdf7a42d	-0.12091861
34	0xbe1b2d68	-0.1515404
35	0xbdec0097	-0.1152355
36	0xbe6abe01	-0.22924043
37	0xbe046503	-0.12929158
38	0xbe2db815	-0.16964753
39	0xbdd01acc	-0.10161361
40	0xbea5443d	-0.32278624
41	0x3dcc36bf	0.099713795
42	0xbec2d4bb	-0.38052925
43	0xbe380e01	-0.17974092
44	0xbe84b817	-0.259217
45	0xbe39e784	-0.18154722
46	0xbea72de8	-0.3265221
47	0xbdbb66ad	-0.09150443
48	0xbda981f7	-0.08276742
49	0x3dedfc52	0.11620392
50	0xbea3d2e6	-0.3199684
51	0xbe5e9983	-0.21738248
52	0xbe0e578b	-0.13900582
53	0xbc7d8258	-0.015472971
54	0x3eb2bb05	0.3490831
55	0xbe4299e5	-0.19004019
56	0xbe84d799	-0.25945738
57	0xbe2a8eb6	-0.16656002
58	0x3cc60711	0.024173291
59	0xbe8a133f	-0.2696781
60	0x3c4eb95a	0.012617433
61	0xbe6c13e9	-0.2305447
62	0xbddb36f3	-0.1070384
63	0xbe22e80e	-0.15908834

hidden_layers.1.weight f4 [64, 64]
0	0xbe274b8d	-0.16337414
1	0xbde14d47	-0.110010676
2	0xbdbde274	-0.09271708
3	0xbd3d8190	-0.04626614
4	0xbc2e5d00	-0.01064229
5	0xbe376604	-0.1791001
6	0xbcb65375	-0.022256592
7	0xbd3f4714	-0.046698645
8	0xbabd4d80	-0.0014442652
9	0x3dc1ae16	0.094570324
10	0xbe32307f	-0.17401312
11	0x3debbd92	0.11510767
12	0xbdbf36df	-0.09336638
13	0xbe2b6e64	-0.1674133
14	0x3cab4088	0.020904794
15	0xbe0fcb80	-0.14042473
16	0xbd9557cd	-0.07292137
17	0x3dfda236	0.12384455
18	0x3a35a572	0.00069292553
19	0x3d81015f	0.0629909
20	0xbdf95d99	-0.121760555
21	0x3c4a1abd	0.012335476
22	0xbe5d15fd	-0.21590419
23	0x3d87cb9c	0.06630632
24	0xbdcb1f4a	-0.09918077
25	0xbd054f2b	-0.032546204
26	0x3c6b7cc7	0.014373011
27	0xbe28a703	-0.1646996
28	0x3b530c63	0.0032203428
29	0xbca4358c	-0.020045064
30	0xbe312355	-0.17298634
31	0xbe0dbcce	-0.13841555
32	0xbd67dc74	-0.056606725
33	0xbc8a7db8	-0.01690565
34	0xbd683198	-0.05668792
35	0xbdea29a1	-0.11433721
36	0x3dc1dce8	0.09465963
37	0x3d584c90	0.05280739
38	0x3c340ee0	0.010989875
39	0xbcb86205	-0.022507677
40	0xbd54b3a8	-0.051929146
41	0x3d4346c8	0.047674924
42	0x3dae8802	0.08522035
43	0xbdeea522	-0.1165259
44	0xbdb76c66	-0.08956222
45	0xbe1dd11c	-0.154118
46	0xbd45d5ac	-0.048299477
47	0x3d32586b	0.043541353
48	0xbc292210	-0.010323063
49	0xbe1848a3	-0.14871459
50	0xbe078594	-0.1323455
51	0xbd15db60	-0.036586165
52	0xbbaa7315	-0.005201707
53	0x3c62c117	0.0138399815
54	0xbd8f3f37	-0.06994479
55	0xbc94deb4	-0.0181726
56	0xbc0480f0	-0.008087382
57	0xbd59952d	-0.05312078
58	0xbd4156cd	-0.04720192
59	0xbe06ea6c	-0.13175362
60	0x3d264e44	0.040601984
61	0x3d313337	0.043261733
62	0x3db3d882	0.0878153
63	0xbe377dab	-0.17919032
64	0x3cd867ea	0.026416738
65	0xbde21cfa	-0.11040683
66	0xbe2680e0	-0.162601
67	0xbdeb02ad	-0.1147512
68	0xbd88c515	-0.066782154
69	0x3cf7f938	0.030270204
70	0xbe0e8510	-0.13917947
71	0xbdd9aad4	-0.10628286
72	0x3dd00533	0.10157242
73	0x3c659c67	0.01401434
74	0xbd17416f	-0.036927637
75	0xbd82e76c	-0.063917965
76	0x3d4c5458	0.049885124
77	0xbda2e180	-0.07953167
78	0xbdf01e3e	-0.11724518
79	0xbdc4f4e2	-0.0961702
80	0xbe77c159	-0.2419485
81	0x3df9ed8a	0.1220351
82	0xbdb927fc	-0.090408295
83	0x3e1da23d	0.1539392
84	0xbe340dcd	-0.1758339
85	0x3de1f7ef	0.11033618
86	0xbe3206ba	-0.17385378
87	0x3e458cf1	0.19292046
88	0x3d2122f4	0.039339975
89	0x3cc1d721	0.023662152
90	0xbe692c18	-0.22770727
91	0x3da7c7f9	0.08192439
92	0x3dc02391	0.09381784
93	0xbc39d332	-0.011341857
94	0xbe015918	-0.12631643
95	0x3ce93f87	0.028472675
96	0xbeb91f4a	-0.36156684
97	0xbf3c9951	-0.7367144
98	0x3e9179dd	0.28413287
99	0xbc218885	-0.009859209
100	0x3d260b28	0.040537983
101	0x3e03f006	0.1288453
102	0xbc943c10	-0.018095046
103	0xbe3f37e5	-0.18673666
104	0x3e74f7a4	0.23922592
105	0x3b047760	0.0020212755
106	0x3e6b422a	0.22974458
107	0xbe1be49f	-0.15223931
108	0xbdbb6ee0	-0.09152007
109	0xbe03b6c4	-0.12862688
110	0xbdf1f0bd	-0.11813495
111	0xbd9203db	-0.071296416
112	0x3d5a9992	0.053369112
113	0xbf2e73ff	-0.68145746
114	0x3d6822b0	0.056673706
115	0x3ae7f29c	0.0017696205
116	0xbde10360	-0.10986972
117	0x3d1bd5ad	0.038045574
118	0x3dddc99f	0.10829472
119	0x3e2342dd	0.15943475
120	0xbde3bf15	-0.111204304
121	0xbe2aeb28	-0.16691267
122	0xbe4001a5	-0.18750627
123	0x3e1a54fa	0.15071478
124	0xbdd6118e	-0.10452567
125	0x3d06c7d3	0.03290541
126	0x3e85ab98	0.26107478
127	0x3d8f2694	0.0698978
128	0x3b854ed9	0.0040682373
129	0x3d3ce3ed	0.046115804
130	0xbe01f9e1	-0.12692977
131	0xbdc8c242	-0.09802677
132	0xbc9ecd88	-0.019385114
133	0x3d321469	0.043476496
134	0xbdec73ba	-0.115455106
135	0xbdeb4730	-0.11488187
136	0x3d2b928e	0.041887812
137	0xbd424cd0	-0.047436535
138	0x3d66c4af	0.056339916
139	0xbc52f5e0	-0.012876004
140	0xbdd93f68	-0.10607797
141	0x3cfbcd94	0.030737676
142	0xbdb14c64	-0.086571485
143	0xbe21ca9a	-0.15799943
144	0xbdc2cab8	-0.09511322
145	0x3d445088	0.047928363
146	0xbd438081	-0.047729973
147	0xbd6e5361	-0.058184985
148	0x3d3f6056	0.046722732
149	0xbdde93ce	-0.10868035
150	0xbe39f402	-0.18159488
151	0xbdad28be	-0.084550366
152	0xbdc260d1	-0.094911225
153	0x3cc0a574	0.023516394
154	0xbdc3a773	-0.09553423
155	0xbd31d14c	-0.04341249
156	0x3d3ca62d	0.046056915
157	0x3c18ff2d	0.009338182
158	0x3cc44aec	0.023961507
159	0x3d0a3d0c	0.033749625
160	0xbc78f400	-0.015194893
161	0xbd9eb914	-0.077501446
162	0xbe1f15d6	-0.15535673
163	0xbe285100	-0.16437149
164	0x3dc4ef78	0.096159875
165	0xbddc782e	-0.1076511
166	0x3d8ceda0	0.06881261
167	0xbe03305f	-0.12811421
168	0xbe1b6ad0	-0.15177464
169	0xbe644199	-0.22290649
170	0xbd00eb30	-0.031474292
171	0xbdf46b7c	-0.119345635
172	0xbab63980	-0.0013902634
173	0xbe2fb578	-0.17159069
174	0xbddfd4fc	-0.109292954
175	0x3c7a7cad	0.015288514
176	0x3d607640	0.054800272
177	0x3a28f77b	0.0006445569
178	0xbe27aa5a	-0.16373578
179	0x3d929ca0	0.0715878
180	0x3ce24460	0.027620494
181	0xbe38e684	-0.18056685
182	0x3d7514bf	0.05983424
183	0x3d5bc824	0.053657666
184	0x3dd82c5e	0.10555337
185	0x3d0bd6b0	0.03414029
186	0x3c02b59c	0.007977869
187	0x3d1c7c1f	0.03820431
188	0xbd40da6c	-0.047083303
189	0xbdaab5ef	-0.08335482
190	0xbcf0e863	-0.029407686
191	0xbdd61254	-0.104527146
192	0x3c90d5a1	0.017679991
193	0xbd96a6ba	-0.07356019
194	0xbdea20b3	-0.11432018
195	0xbdd1cc4e	-0.10244046
196	0xbcedf6e8	-0.029048398
197	0x3d3c2f34	0.045943454
198	0xbd9720e2	-0.07379319
199	0x3dfea754	0.12434259
200	0x3d4d0e67	0.050062563
201	0x3f02c29d	0.51078206
202	0x3e127663	0.14302973
203	0x3deefb34	0.11669007
204	0x3e50d411	0.20393397
205	0x3d9cae08	0.07650381
206	0xbde4effa	-0.111785844
207	0x3d9b775a	0.07591124
208	0xbda22a26	-0.079181954
209	0xbdd54a0a	-0.104145125
210	0x3e13e8a5	0.14444216
211	0x3da6a8ce	0.08137666
212	0x3d838ab2	0.064229384
213	0xbd6f4ee5	-0.05842485
214	0xbdac8400	-0.084236145
215	0xbdae5190	-0.085116506
216	0x3e2ff3ac	0.17182797
217	0xbbb49603	-0.005511047
218	0x3e492c13	0.19645719
219	0x3da397cc	0.07987937
220	0xbd4fd2f5	-0.050738294
221	0xbe0e56f9	-0.13900365
222	0x3d81f71e	0.06345962
223	0x3cf44a3a	0.02982055
224	0xbd351ab8	-0.044214934
225	0x3cf91f78	0.030410513
226	0x3d0e5879	0.034752343
227	0xbdf02f4a	-0.1172777
228	0xbdd653e0	-0.10465217
229	0x3e0fc913	0.14041547
230	0x3b685f80	0.0035457313
231	0x3bfb0532	0.0076605314
232	0xbd30fcc1	-0.043209795
233	0xbd494076	-0.04913374
234	0xbde9d3ca	-0.11417349
235	0xbd39c2f4	-0.045351937
236	0x3dd13c7a	0.10216613
237	0xbd6885e5	-0.056768317
238	0xbc60d580	-0.013722777
239	0x3dd23936	0.10264818
240	0xbc709b10	-0.014685407
241	0xbe4ae22a	-0.19812837
242	0xbd82f10c	-0.06393632
243	0x3d5de100	0.054169655
244	0xbcf1a4d3	-0.02949754
245	0x3c382412	0.011239069
246	0xbe79b623	-0.24385886
247	0xbc7594fd	-0.014989135
248	0xbd4bbfcc	-0.04974346
249	0xbe0ff6ab	-0.1405894
250	0x3e065ff7	0.13122545
251	0x3c0fc523	0.008775028
252	0xbd2641d8	-0.040590137
253	0x3d2b359c	0.041799173
254	0xbcf741e1	-0.03018278
255	0xbde283de	-0.11060308

hidden_layers.1.bias f4 [64]
0	0xbe0595b3	-0.13045387
1	0x3e7eacd8	0.24870622
2	0xbdcd0df5	-0.10012428
3	0xbd133b6d	-0.035945345
4	0xbe462d12	-0.1935313
5	0xbd3eeff2	-0.04661555
6	0xbe61c22a	-0.22046724
7	0x3dabef98	0.08395308
8	0xbdd18fe0	-0.1023252
9	0x3e632713	0.22182874
10	0xbe222e00	-0.1583786
11	0x3e5460ec	0.20740098
12	0xbe8975f6	-0.2684781
13	0xbdea924f	-0.114536874
14	0xbe975971	-0.29560426
15	0xbe82ea71	-0.2556949
16	0xbd81722c	-0.06320605
17	0xbe6a0b0b	-0.22855775
18	0x3de9ffa1	0.114257105
19	0xbde1407f	-0.1099863
20	0xbe38e5e7	-0.18056451
21	0x3d87629d	0.06610606
22	0x3eff41c1	0.49854854
23	0x3ea0c5e0	0.31400967
24	0x3e769bbc	0.24082845
25	0xbdec908f	-0.1155101
26	0xbe4800dc	-0.19531578
27	0xbde6d9eb	-0.11272033
28	0xbe9dae09	-0.3079684
29	0x3d4a814b	0.04943971
30	0xbe8ce1d3	-0.2751604
31	0xbe63ed5d	-0.22258516
32	0xbd8f1f46	-0.06988387
33	0xbdd80886	-0.10548501
34	0xbeac3c27	-0.33639643
35	0xbe011c24	-0.12608391
36	0xbda089d9	-0.07838792
37	0x3ec816be	0.3907985
38	0xbec78663	-0.38969716
39	0xbea4e792	-0.32207924
40	0xbe6937f5	-0.22775252
41	0xbe760c2d	-0.24028082
42	0x3e4f5880	0.20248604
43	0x3e5e96d6	0.21737227
44	0xbc17c70f	-0.009263768
45	0xbdba4efe	-0.09097098
46	0xbce1f68c	-0.027583383
47	0xbd1a9eaf	-0.03774899
48	0xbdf8af8c	-0.12142858
49	0xbe255132	-0.16144255
50	0xbe9e81f8	-0.30958533
51	0x3f56a8b2	0.8385116
52	0x3e746572	0.23866823
53	0x3e5d7dd1	0.21630026
54	0xbe8825ab	-0.26591238
55	0xbe525eff	-0.2054405
56	0x3f51c7fe	0.8194579
57	0xbea41d20	-0.3205347
58	0x3e9a81ee	0.30177253
59	0xbe3e764a	-0.18599811
60	0xbdf8c1ec	-0.12146363
61	0x3f0da1b8	0.5532489
62	0xbcf4a33e	-0.029862996
63	0xbc4b80a3	-0.012420806

output_layer.weight f4 [2, 64]
0	0xbddc2ab9	-0.10750336
1	0xbdc51984	-0.09624007
2	0x3d6790cc	0.056534573
3	0x3d194c3e	0.037426226
4	0x3d8ff267	0.070286565
5	0xbd67d00b	-0.05659489
6	0xbd5147b9	-0.05109379
7	0xbe00af62	-0.12566903
8	0x3cf065b5	0.029345373
9	0xbd70be31	-0.05877513
10	0xbcc1f2ce	-0.023675349
11	0xbd63911d	-0.055558313
12	0xbd9f2800	-0.07771301
13	0x3e2e4628	0.1701895
14	0x3d64ccae	0.05585926
15	0xbc13cf0d	-0.009021533
16	0xbd0e4f46	-0.03474357
17	0xbbb7aacc	-0.0056050774
18	0xbc34bb11	-0.011030928
19	0x3c9e47f0	0.019321412
20	0xbd03a05b	-0.03213535
21	0x3c6af83f	0.014341413
22	0x3d6ceb7a	0.057841755
23	0x3d1a9ce6	0.037747286
24	0xbd87a148	-0.06622559
25	0xbd579352	-0.05263073
26	0xbca0090d	-0.019535566
27	0x3d8b8a17	0.06813448
28	0xbcc67de5	-0.024229953
29	0xbd9a792d	-0.07542644
30	0x3daec39f	0.085334055
31	0xbd337807	-0.04381564
32	0xbda4cad2	-0.080464974
33	0x3c3ce3ef	0.011528953
34	0xbdee548b	-0.11637219
35	0x3da88738	0.08228916
36	0xbd959b32	-0.07304992
37	0x3c865038	0.016395673
38	0xbddab01c	-0.106781214
39	0x3dc4f8eb	0.0961779
40	0x3d4d5ca0	0.050137162
41	0x3d83e89e	0.064408526
42	0xbd67bb7e	-0.05657529
43	0xbcc021fa	-0.023453701
44	0x3c36db10	0.011160627
45	0x3d6b647d	0.05746888
46	0xbd8d2470	-0.068917155
47	0x3c480488	0.012208112
48	0x3c43d694	0.011953015
49	0xbdab12c2	-0.08353187
50	0xbddd7905	-0.10814098
51	0x3e544cfc	0.20732492
52	0xbc9dfd00	-0.019285679
53	0xbdb3b7e7	-0.08775311
54	0xbd6762ed	-0.056490827
55	0xbdab035a	-0.08350249
56	0x3d8fb999	0.07017822
57	0x3dc91c01	0.098197944
58	0xbde9368e	-0.113873586
59	0xbd6f9578	-0.058492154
60	0xbcefe9cb	-0.029286286
61	0x3d3ec19c	0.04657136
62	0x3d5185af	0.05115288
63	0xbcc7e78c	-0.024402402
64	0x3ddef181	0.10885907
65	0xbdd5e1fa	-0.10443492
66	0x3d0e6f7b	0.034774285
67	0x3d82d43d	0.063881375
68	0x3d809cab	0.06279882
69	0x3da4e5cc	0.08051643
70	0xbb9acf4a	-0.004724418
71	0xbdbdbdcc	-0.092647165
72	0x3c881cc1	0.016615273
73	0x3c9377de	0.018001493
74	0xbc9ea6ef	-0.01936671
75	0xbd78a822	-0.06070722
76	0x3dbfc4d9	0.093637176
77	0xbe8835a1	-0.26603416
78	0x3d314265	0.04327621
79	0x3d23e34d	0.040011693
80	0xbd33f880	-0.04393816
81	0x3d4111fc	0.04713629
82	0x3bbf3564	0.005835222
83	0x3ce97680	0.028498888
84	0xbd42845e	-0.047489516
85	0xbc9a5607	-0.01883985
86	0x3cf6f0f3	0.03014419
87	0xbd91581b	-0.07096883
88	0x3dbe39af	0.09288346
89	0xbd7dc080	-0.06195116
90	0xbcfb011d	-0.03064018
91	0x3d36256e	0.04446929
92	0xbcf299cf	-0.029614357
93	0xbd948ed3	-0.07253804
94	0x3dd6dd32	0.104914084
95	0xbb9767e9	-0.0046205414
96	0xbc87e59c	-0.016588978
97	0xbd840f2d	-0.06448207
98	0xbbf8440f	-0.0075764726
99	0xbdad381f	-0.0845797
100	0xbd91347e	-0.0709009
101	0x3d9e497b	0.07728859
102	0xba325543	-0.0006802866
103	0xbe59776e	-0.21236965
104	0x3de358ea	0.111009434
105	0xbdc9891c	-0.09840605
106	0xbcfe02a7	-0.031007124
107	0x3b212d4d	0.0024593652
108	0xbe2ee929	-0.17081131
109	0x3d1757c6	0.03694894
110	0x3da00edb	0.078153335
111	0xbbc1b527	-0.0059114876
112	0x3d14e167	0.036347773
113	0x3d13d2c6	0.03608968
114	0x3ddb84d4	0.10718694
115	0xbe8a882e	-0.27057022
116	0xbcf11722	-0.029429976
117	0xbd9c417c	-0.07629678
118	0x3d152404	0.0364113
119	0xbd95469f	-0.072888605
120	0xbe2ad8ac	-0.16684216
121	0xbc088ca5	-0.0083343135
122	0xbb4caa4d	-0.0031229437
123	0x3daf0d4a	0.085474566
124	0xbdaf87a8	-0.08570796
125	0xbd9ce623	-0.076610826
126	0x3db31331	0.08743895
127	0xbb9b787c	-0.0047445875

output_layer.bias f4 [2]
0	0xbefdd4d8	-0.4957645
1	0x3f298ca2	0.66230214

order.0.weight f4 [64, 9]
0	0xbe8db6f2	-0.2767864
1	0xbd494892	-0.049141474
2	0xbea3c443	-0.31985673
3	0x3b8391b7	0.0040151733
4	0xbe62d5ee	-0.2215192
5	0xbeb05f1d	-0.34447566
6	0xbe0af58b	-0.1357023
7	0xbc897d21	-0.016783299
8	0xbd232ed1	-0.03983957
9	0xbe810c21	-0.25204566
10	0xbe41b005	-0.18914802
11	0xbdeb85b4	-0.11500111
12	0xbea3a656	-0.31962842
13	0x3cd069bb	0.025441041
14	0xbe3a3b90	-0.18186784
15	0xbe3efe78	-0.1865176
16	0x3d25296e	0.040322714
17	0xbe7e3f4e	-0.24828836
18	0xbe96505d	-0.29358187
19	0xbe015c6c	-0.12632912
20	0xbe9f94cb	-0.31168208
21	0xbefe2054	-0.4963404
22	0xbec6b678	-0.38811088
23	0xbe874f4a	-0.2642768
24	0x3d9b16d6	0.07572715
25	0xbe93d048	-0.28869843
26	0x3c30e5f9	0.010797017
27	0xbe592033	-0.2120369
28	0xbdbb3eb6	-0.091428205
29	0x3e41c5c2	0.18923095
30	0xbc821b90	-0.015882283
31	0xbe1a9c40	-0.15098667
32	0x3e94a1dd	0.29029742
33	0xbdbaac50	-0.09114897
34	0x3d844c40	0.06459856
35	0xbcfa0b80	-0.030523062
36	0x3ea55d25	0.32297626
37	0xbdc8dbbc	-0.09807536
38	0x3e0dd4fe	0.13850781
39	0xbe1a40f3	-0.15063839
40	0xbea526be	-0.3225612
41	0xbddf572c	-0.109052986
42	0xbe91aa86	-0.28450412
43	0xbe7d41cb	-0.2473213
44	0xbea4230c	-0.3205799
45	0xbecfa55e	-0.40555853
46	0x3b290319	0.00257892
47	0xbebbb026	-0.36657828
48	0xbec1a09e	-0.37817854
49	0x3e0b35a7	0.13594685
50	0x3ec294e7	0.38004228
51	0x3e1ed817	0.15512119
52	0xbf0d8373	-0.552787
53	0xbe63a7bc	-0.22231954
54	0xbea273e9	-0.31729057
55	0xbcd5fbfb	-0.02612113
56	0xbe540ac7	-0.20707236
57	0xbcde9b7e	-0.027173754
58	0xbe1183ba	-0.14210406
59	0xbe5ec867	-0.21756135
60	0xbd91007e	-0.07080172
61	0xbec1e312	-0.37868553
62	0xbe302a51	-0.17203642
63	0x3ce4e74f	0.027942328
64	0xbcc2d5ce	-0.02378359
65	0xbea84a99	-0.32869413
66	0x3e9eedb9	0.31040743
67	0xbeb84b58	-0.35994983
68	0xbeacd2c8	-0.33754563
69	0xbd31dbf3	-0.04342265
70	0x3c85f222	0.01635081
71	0x3d808aab	0.06276449
72	0xbe995fe4	-0.2995597
73	0xbdb98a76	-0.090596125
74	0x3c8acb70	0.01694271
75	0xbda18af4	-0.07887831
76	0xbe8c852b	-0.2744535
77	0xbddef426	-0.10886411
78	0xbe31300e	-0.17303488
79	0xbd619a78	-0.055078954
80	0x3e90d095	0.28284135
81	0xbd39a4b9	-0.045323107
82	0x3c430975	0.01190411
83	0xbe063e17	-0.13109623
84	0xbd49d2ec	-0.049273416
85	0x3e3f431d	0.18677945
86	0xbe050f2d	-0.1299407
87	0xbe9b54a5	-0.30338016
88	0xbeb59a33	-0.35469207
89	0x3ddab7f1	0.10679615
90	0x3e220aa8	0.15824378
91	0xbd9e83e0	-0.07739997
92	0xbde59cdc	-0.11211559
93	0xbe32bc30	-0.174546
94	0xbdbdd206	-0.092685744
95	0xbea5521e	-0.32289213
96	0xbe9847d7	-0.2974231
97	0xbe901a43	-0.28145036
98	0x3d037360	0.032092452
99	0xbe7bea4a	-0.24601093
100	0xbd86ae4e	-0.06576215
101	0xbe7aac8f	-0.24479888
102	0xbf8161cf	-1.0107974
103	0x3e72d8a0	0.23715448
104	0x3f065b03	0.5248262
105	0x3cedd87d	0.029033894
106	0xbca904e0	-0.020632207
107	0xbe400ba2	-0.18754438
108	0xbe72acdd	-0.23698755
109	0xbc8e03b4	-0.01733575
110	0xbf129d68	-0.5727143
111	0xbf7ca958	-0.986959
112	0xbe2ddb61	-0.16978218
113	0x3d378adf	0.044810172
114	0x3d7b4e11	0.061353747
115	0xbe0d42ca	-0.1379501
116	0xbee376d4	-0.44426596
117	0xbd94d360	-0.07266879
118	0xbec58563	-0.38578328
119	0xbeb93c06	-0.36178607
120	0xbbc548b4	-0.00602063
121	0x3e11650d	0.14198704
122	0xbedb20dd	-0.4279851
123	0x3de1b8fb	0.1102161
124	0xbeccf271	-0.40028718
125	0x3e9f900d	0.3116459
126	0x3e5500aa	0.20801035
127	0xbe33ef53	-0.17571764
128	0x3e447c0a	0.19187942
129	0x3ea9b397	0.3314483
130	0xbd944d64	-0.072413236
131	0x3ea3e359	0.3200939
132	0xbe81c0a2	-0.2534228
133	0xbcc7d030	-0.024391264
134	0x3e9c1f83	0.30492792
135	0x3e02fce1	0.12791778
136	0xbdbf7951	-0.09349311
137	0xbeaec28f	-0.3413281
138	0x3b0fe7c7	0.0021958218
139	0x3e5bd795	0.21468957
140	0xbeda62ce	-0.42653507
141	0xbc3b0ea6	-0.011417067
142	0xbde002e9	-0.10938055
143	0xbe306ee6	-0.17229804
144	0x3f2d2bd0	0.6764498
145	0xb9b55fcc	-0.00034594384
146	0x3c204e83	0.009784344
147	0x405d08a0	3.4536514
148	0xbfdb6c82	-1.7142489
149	0xc00fa71c	-2.2445745
150	0x3d84d4a2	0.06485869
151	0xbd155470	-0.03645748
152	0xbcbb397d	-0.022854561
153	0xbe781326	-0.24226055
154	0xbd7a97e0	-0.061179996
155	0x3e7ff68e	0.24996397
156	0x3e8bbb0d	0.27291146
157	0x3e41efb2	0.18939093
158	0x3d698d38	0.057019442
159	0xbea6dd64	-0.32590783
160	0xbe04ebb6	-0.12980542
161	0x3d62e0a0	0.05539
162	0xbef044e2	-0.46927553
163	0xbd7b477f	-0.06134748
164	0xbe1bb5b0	-0.15206027
165	0xbf2fb53b	-0.6863591
166	0x3f1c358f	0.61019224
167	0xbe96f2e0	-0.29482174
168	0xbec1c293	-0.3784376
169	0xbef43a7c	-0.4770087
170	0xbd74503a	-0.059646823
171	0xbe90a460	-0.28250408
172	0xbf0f9cf2	-0.56098855
173	0x3e07da0a	0.13266769
174	0xbe0bba00	-0.13645172
175	0xbdece49e	-0.11567043
176	0xbe92cc3e	-0.2867145
177	0x3e156c8c	0.14592189
178	0xbebdfdcc	-0.37107694
179	0xbeb33611	-0.35002187
180	0xbf371803	-0.71521014
181	0xbdd44286	-0.10364251
182	0x3f2a8e14	0.66623044
183	0xc04787f4	-3.117673
184	0x3fcb997c	1.5906215
185	0x400bae60	2.182518
186	0x3e2330ff	0.1593666
187	0x3e8661f5	0.2624661
188	0xbe623285	-0.22089584
189	0xbe91dce9	-0.28488854
190	0xbdcb73bd	-0.09934185
191	0xbe2dbdac	-0.16966885
192	0xbde0ce4a	-0.109768465
193	0xbcd9f6bf	-0.026606916
194	0xbe547d1f	-0.20750855
195	0xbd956591	-0.07294763
196	0xbe22a0f1	-0.15881707
197	0x3e939655	0.28825632
198	0xbd2b5520	-0.04182923
199	0xbe4c804b	-0.19970815
200	0xbe7442a0	-0.2385354
201	0xbe46cffb	-0.19415276
202	0xbea497d6	-0.32147092
203	0xbe83f207	-0.2577059
204	0xbe9f1250	-0.3106866
205	0xbe2b4b90	-0.16728044
206	0xbc929f50	-0.017898232
207	0x3c9c0de4	0.019049592
208	0xbc88ee50	-0.016715199
209	0x3e139cc1	0.14415266
210	0x3d53c24a	0.05169896
211	0xbe9a9bb9	-0.30196932
212	0xbead15fc	-0.33805835
213	0xbea08761	-0.31353286
214	0x3e557e0c	0.20848864
215	0xbe823608	-0.25431848
216	0x3d974f6b	0.07388195
217	0xbd9e4416	-0.0772783
218	0xbe554fc8	-0.20831215
219	0x3ec25a2b	0.37959418
220	0xbe6040e2	-0.21899751
221	0x3e13b403	0.14424138
222	0xbd9f69b6	-0.07783835
223	0x3dc2e096	0.095154926
224	0x3dd3a01a	0.10333271
225	0x3d805148	0.06265503
226	0xbe990052	-0.29883057
227	0x3e648111	0.2231486
228	0x3da036fc	0.078229874
229	0x3dfa9c7b	0.122368775
230	0xbcc43196	-0.023949426
231	0xbe405c7d	-0.18785281
232	0x3e34506c	0.17608804
233	0x3d795430	0.060871303
234	0xbecce195	-0.40015855
235	0xbca61ea5	-0.020278284
236	0xbccd1cb4	-0.0250381
237	0xbe64fcf6	-0.22362122
238	0xbe6cd309	-0.23127379
239	0xbed2c73b	-0.41167626
240	0xbea8e990	-0.32990694
241	0xbeb60818	-0.3555305
242	0x3cc8dcc8	0.02451934
243	0xbd261a1c	-0.040552244
244	0x3c9ccd5a	0.019140888
245	0xbeab6457	-0.3347499
246	0xbf158e94	-0.5842068
247	0xbeeb0a88	-0.45906472
248	0xbe4f9ee7	-0.2027546
249	0xbe32ddf9	-0.17467488
250	0xbf2b8f35	-0.6701539
251	0xbe20316c	-0.15643853
252	0xbe20d5be	-0.15706536
253	0xbcdfd7ff	-0.027324675
254	0xbf04b329	-0.51835877
255	0xbcc847e0	-0.024448335

order.0.bias f4 [64]
0	0x3e4db618	0.20088995
1	0xbebe6be7	-0.37191698
2	0xbeeed428	-0.46646237
3	0xbce07fb0	-0.027404636
4	0x3e9a7cb9	0.3017328
5	0xbed19e2a	-0.40940982
6	0xbe6b1602	-0.22957614
7	0xbc9ccbf8	-0.019140229
8	0x3e9622ab	0.29323325
9	0xbd89d3d5	-0.06729857
10	0x3c1f41a0	0.009720236
11	0xbebd2890	-0.3694501
12	0xbe71e1ed	-0.2362134
13	0xbe9db5e7	-0.30802843
14	0x3e5159fa	0.2044448
15	0xbe0fc525	-0.14040048
16	0xbdd32f99	-0.10311813
17	0x3e4b3e42	0.19847968
18	0xbe6bc088	-0.23022664
19	0xbe79c5bb	-0.24391834
20	0x3f8612c9	1.0474483
21	0xbdd30fd2	-0.10305752
22	0xbd7b9600	-0.061422348
23	0x3e360d1e	0.17778441
24	0xbde75d16	-0.112970516
25	0xbe80388b	-0.2504314
26	0xbec8b3a0	-0.39199543
27	0xbec192e6	-0.37807387
28	0xbeb4ca1a	-0.3531044
29	0xbf23d71a	-0.64000094
30	0xbe844132	-0.2583099
31	0xbe846555	-0.2585856
32	0xbe7f262a	-0.24916902
33	0x3e8c0803	0.27349862
34	0xbc8e25d0	-0.017352015
35	0x3cd88810	0.026432067
36	0xbed68b4b	-0.41903147
37	0x3e5ed43a	0.21760646
38	0xbe3cf710	-0.18453622
39	0xbe7c7508	-0.24654019
40	0xbe583215	-0.21112855
41	0x3ea4a528	0.32157254
42	0x3bd71794	0.00656409
43	0xbee6edc1	-0.45103267
44	0x3debb843	0.115097545
45	0xbe369470	-0.17830062
46	0xbe187ea3	-0.14892058
47	0x3e52a422	0.20570424
48	0x3e2e2e3a	0.17009822
49	0xbed6e8d8	-0.4197452
50	0xbf47bbc0	-0.7802086
51	0x3e22f546	0.15913877
52	0xbed1a508	-0.4094622
53	0xbe29053d	-0.16505904
54	0xbe5a9b73	-0.21348362
55	0x3eaa0ae5	0.33211437
56	0xbecb047a	-0.39651853
57	0xbd3acb0a	-0.04560379
58	0x3e3dc7de	0.18533275
59	0x3e1562d8	0.14588487
60	0xbdb9d204	-0.090732604
61	0xbd8fec80	-0.07027531
62	0x3c609be1	0.013709039
63	0xbf1350e0	-0.5754528

order.3.weight f4 [64, 64]
0	0x3de3b558	0.11118573
1	0x3daa5f3a	0.08318944
2	0xbcd64ebc	-0.02616059
3	0xbdd9c68e	-0.106335744
4	0x3d7394d8	0.05946812
5	0x3c494e43	0.012286725
6	0x3c861753	0.016368544
7	0xbc638e37	-0.013888887
8	0xbcd5cef0	-0.026099652
9	0xbdcc514e	-0.09976445
10	0x3d9a1df8	0.07525247
11	0xbc12eed7	-0.008968077
12	0xbd96b91c	-0.073595256
13	0xbde39b87	-0.11113649
14	0xbdb03492	-0.08603777
15	0xbdee6877	-0.11641019
16	0xbddbb0b9	-0.107270665
17	0xbd9f6396	-0.077826664
18	0xbe414664	-0.18874508
19	0xbdcec3bb	-0.100959264
20	0xbca2324e	-0.019799378
21	0xbdac8029	-0.08422882
22	0x3dbe4fb4	0.09292546
23	0xbdf38af8	-0.118917406
24	0x3d91c62e	0.07117878
25	0x3c6de990	0.014521018
26	0xbdf7ca23	-0.120991014
27	0xbd8b83eb	-0.06812271
28	0xbc050851	-0.008119659
29	0x3cff9988	0.03120114
30	0xbe0882e7	-0.13331185
31	0xbe4e9baf	-0.20176576
32	0xbcffdbf3	-0.03123281
33	0xbcba9de8	-0.022780374
34	0xbd445f58	-0.04794249
35	0xbb9cb1e0	-0.0047819465
36	0xbcfa78c8	-0.030575171
37	0x3df333d2	0.11875118
38	0xbdb5175a	-0.088423446
39	0xbda1511a	-0.07876797
40	0xbc93c47c	-0.018038027
41	0xbd5b4833	-0.05353565
42	0xbe51a0b7	-0.20471464
43	0xbd6235ee	-0.055227213
44	0xbb1f7480	-0.0024330914
45	0x3c85b470	0.01632139
46	0x3b7be05e	0.0038433294
47	0xbdff0563	-0.12452199
48	0x3cd76fd0	0.026298434
49	0xbcf4b626	-0.029872011
50	0xbdea1925	-0.11430577
51	0xbdd3d086	-0.10342507
52	0xbd4b7b9f	-0.04967844
53	0xbe05bd6c	-0.1306054
54	0xbdbf4337	-0.09338992
55	0x3dfc0652	0.12305893
56	0x3bdd7660	0.006758496
57	0xbde0309e	-0.10946773
58	0xbd314e71	-0.0432877
59	0xbd6a1eb0	-0.057158172
60	0xbcca56eb	-0.024699649
61	0xbd7ef9e4	-0.062250033
62	0xbe0fabef	-0.14030431
63	0xbe568580	-0.20949364
64	0x3ce932ee	0.028466668
65	0x3c06a020	0.008216888
66	0xbe11a4bc	-0.14222997
67	0x3c24fbc0	0.0100697875
68	0x3d883dbc	0.066524
69	0x3d7fe1fd	0.06247138
70	0xbd6fdd95	-0.058560926
71	0xbdc7b1c1	-0.09750701
72	0x3cf573c0	0.02996242
73	0x3d0990ab	0.03358523
74	0x3b0f4480	0.0021860898
75	0xbe1d8ce7	-0.15385781
76	0xbd56712f	-0.052354034
77	0x3d662a99	0.056192968
78	0xbdde37be	-0.10850476
79	0xbda4d441	-0.08048297
80	0x3d0abdba	0.033872344
81	0x3d6a9328	0.057269245
82	0xbe0191e6	-0.12653312
83	0x3d9c1f87	0.07623201
84	0xbe39661e	-0.18105361
85	0xbdcb641e	-0.09931205
86	0xbdaaff46	-0.08349471
87	0xbce0860c	-0.027407669
88	0xbca29663	-0.0198471
89	0xbd644d58	-0.055737823
90	0xbd755e97	-0.05990466
91	0x3d868d04	0.06569865
92	0x3caaeb70	0.020864218
93	0xbdbe7d87	-0.09301286
94	0x3d786874	0.06064649
95	0xbe3d59b6	-0.18491253
96	0xbdfee01d	-0.1244509
97	0xbb367f00	-0.0027846694
98	0xbd09d038	-0.03364584
99	0xbdfd4ff8	-0.123687685
100	0xba642d00	-0.0008704215
101	0x3d818c70	0.063256145
102	0xbdb6a370	-0.08917892
103	0x3d32ee68	0.043684393
104	0xbd9627d0	-0.073318124
105	0xbd567ed0	-0.05236703
106	0xbd96ea26	-0.07368879
107	0xbdc38d9d	-0.09548495
108	0xbebe64bd	-0.37186232
109	0xbd772374	-0.060336545
110	0x3d7380bd	0.059448946
111	0x3d5c6619	0.053808305
112	0xbd93989e	-0.07206844
113	0xbdff9649	-0.124798365
114	0xbb81ccc1	-0.003961176
115	0xbdc4fbc1	-0.09618331
116	0xbe21c4ea	-0.15797773
117	0x3e07d73d	0.132657
118	0x3d8eed31	0.069788344
119	0x3d284120	0.041077733
120	0xbdd7d9a2	-0.10539557
121	0xbd403fd1	-0.04693586
122	0xbc4e0b02	-0.012575867
123	0xbdc885b6	-0.09791128
124	0x3d6c0d88	0.057630092
125	0xbdd9ea06	-0.106403396
126	0xbc9250d4	-0.017860807
127	0xbe0eeebf	-0.13958262
128	0xbd508402	-0.050907142
129	0xbdafb180	-0.08578777
130	0xbdf9b8c5	-0.12193445
131	0xbdcf2070	-0.10113609
132	0xbd15697c	-0.03647755
133	0x3d6b454a	0.057439126
134	0x3d5eeba5	0.054423947
135	0xbda9c2c8	-0.08289105
136	0x3d7e9a00	0.062158585
137	0xbe4acd02	-0.19804767
138	0x3c82ed70	0.01598236
139	0x3cac0f1b	0.021003297
140	0x3d5e5877	0.054283585
141	0xbd8bab62	-0.06819798
142	0xbdd30b4e	-0.103048906
143	0xbe7350d6	-0.23761305
144	0x3e27384d	0.16330071
145	0x3dab2454	0.083565384
146	0x3dd5ce80	0.104397774
147	0xbd928240	-0.071537495
148	0xbf3481ea	-0.70510733
149	0xbca02bb1	-0.019552084
150	0xbdf24d62	-0.11831166
151	0x3c7b3ffa	0.015335077
152	0xbd84a82c	-0.06477389
153	0x3d5ec645	0.054388303
154	0x3d921ca0	0.07134366
155	0xbe013ed4	-0.12621623
156	0x3d3acb9f	0.045604344
157	0xbdbcb2e7	-0.092138104
158	0x3bbfdb2e	0.0058549857
159	0x3c5360a6	0.012901461
160	0xbd4fb233	-0.050707053
161	0x3d3943dc	0.04523073
162	0xbcb5f708	-0.02221252
163	0xbcbc27d0	-0.022968203
164	0xbe193abe	-0.14963815
165	0x3debf7e2	0.11521889
166	0x3d92634a	0.07147844
167	0x3dc06a54	0.093952805
168	0xbd07bcfa	-0.033139206
169	0xbf1b21dc	-0.6059854
170	0x3e284fdf	0.16436718
171	0xbcd51c52	-0.02601448
172	0xbea56770	-0.3230548
173	0xbba87cc0	-0.0051418245
174	0x3c3db3c3	0.011578503
175	0xbd2ea92b	-0.0426418
176	0xbde3410a	-0.110963896
177	0x3e18225c	0.14856857
178	0xbdf82637	-0.12116664
179	0xbbb7962c	-0.0056026187
180	0x3ddd8e1c	0.10818121
181	0x3dabe784	0.083937675
182	0xbdaef7a0	-0.085433245
183	0xbcb81e40	-0.022475362
184	0x3cf9da06	0.03049947
185	0xbd391ca1	-0.04519332
186	0x3d2d7db9	0.042356227
187	0xbddc09b4	-0.10744038
188	0xbca56b6c	-0.020192824
189	0xbab2a200	-0.0013628602
190	0xbd1d3533	-0.038380813
191	0xbea15c9a	-0.31515962
192	0x3d830c1e	0.063987955
193	0xbda79baa	-0.081839874
194	0xbe235087	-0.15948687
195	0xbde0e210	-0.10980618
196	0xbcc64ff8	-0.024208054
197	0xbd3ca4b7	-0.04605552
198	0x3ddeea32	0.10884513
199	0x3c0aa950	0.008463219
200	0x3ce05dc8	0.027388468
201	0xbd97cda6	-0.07412271
202	0xbd8f2bce	-0.06990777
203	0xbe3bb6f5	-0.18331511
204	0xbebb4515	-0.36576143
205	0x3d256790	0.040381968
206	0xbc963b98	-0.018338963
207	0x3dabedda	0.08394976
208	0xbedffd5a	-0.4374798
209	0xbdc99154	-0.09842172
210	0xbea8ac20	-0.3294382
211	0x3db64490	0.08899796
212	0xbdb4f57e	-0.088358864
213	0x3d855634	0.065105826
214	0xbcc74708	-0.024325863
215	0x3b175400	0.002309084
216	0xbcd56670	-0.026049823
217	0xbc8de458	-0.017320797
218	0x3df2df78	0.118590295
219	0xbdb13490	-0.086526036
220	0xbd97105c	-0.07376167
221	0xbdb7553c	-0.08951804
222	0xbdb5f51a	-0.0888464
223	0xbd991f04	-0.07476619
224	0xbe851f0f	-0.26000258
225	0x3d241afc	0.040064797
226	0xbdb877bc	-0.090072125
227	0xbdf42d6c	-0.11922726
228	0xbd94d772	-0.072676554
229	0xbdd4a7ea	-0.103835896
230	0x3d7ca5d0	0.06168157
231	0x3dcdaa0c	0.100421995
232	0x3dbbc544	0.09168485
233	0xbc0df823	-0.008665117
234	0xbe7b3acf	-0.24534152
235	0xbe1d9fcd	-0.1539299
236	0xbd5173e4	-0.051135913
237	0x3c56e7b0	0.013116762
238	0xbe5ca538	-0.21547401
239	0x3cf977e0	0.030452669
240	0x3c82a1b0	0.01594624
241	0xbe0c5b9f	-0.13706826
242	0xbd3210a0	-0.043472886
243	0xbdac08cc	-0.08400115
244	0xbea8fe7b	-0.33006653
245	0x3ce043d0	0.027376086
246	0x3da21cca	0.07915647
247	0xbdca7526	-0.098856255
248	0xbde01864	-0.10942152
249	0xbe37f6d8	-0.17965257
250	0xbd8d7116	-0.06906335
251	0xbd27b590	-0.040944636
252	0x3cb4c058	0.022064373
253	0x3d880080	0.0664072
254	0xbdcad0aa	-0.09903081
255	0xbe09047c	-0.13380617

order.3.bias f4 [64]
0	0xbe46102e	-0.1934211
1	0x3cd5de05	0.026106844
2	0x3e575aec	0.21030778
3	0xbe4e22e6	-0.201305
4	0xbe91c69d	-0.28471842
5	0xbdf30b44	-0.11867383
6	0x3d24172d	0.040061165
7	0xbe426784	-0.189848
8	0x3d73f46c	0.05955927
9	0x3df796cc	0.12089309
10	0xbe455bc0	-0.19273281
11	0xbd80d5fd	-0.06290815
12	0xbd8c39a5	-0.06846932
13	0xbe20af2d	-0.15691824
14	0xbcab4a7b	-0.020909538
15	0xbdb30a75	-0.08742229
16	0xbc15c05d	-0.009140101
17	0xbda6a9ba	-0.081378415
18	0xb935ad7c	-0.00017326133
19	0xbe345e76	-0.17614159
20	0x3d85214b	0.06500491
21	0xbe0d2d1f	-0.13786744
22	0x3eb51e9d	0.3537492
23	0xbe674601	-0.22585298
24	0xbd535b74	-0.05160089
25	0xbdb53844	-0.088486224
26	0x3ced91e3	0.029000228
27	0xbde62422	-0.112373605
28	0xbe345ce2	-0.17613557
29	0xbd812b69	-0.06307108
30	0xbe16a9c3	-0.14713196
31	0xbd1a2f09	-0.037642512
32	0xbe96b6cc	-0.29436338
33	0xbdf7a42d	-0.12091861
34	0xbe1b2d68	-0.1515404
35	0xbdec0097	-0.1152355
36	0xbe6abe01	-0.22924043
37	0xbe046503	-0.12929158
38	0xbe2db815	-0.16964753
39	0xbdd01acc	-0.10161361
40	0xbea5443d	-0.32278624
41	0x3dcc36bf	0.099713795
42	0xbec2d4bb	-0.38052925
43	0xbe380e01	-0.17974092
44	0xbe84b817	-0.259217
45	0xbe39e784	-0.18154722
46	0xbea72de8	-0.3265221
47	0xbdbb66ad	-0.09150443
48	0xbda981f7	-0.08276742
49	0x3dedfc52	0.11620392
50	0xbea3d2e6	-0.3199684
51	0xbe5e9983	-0.21738248
52	0xbe0e578b	-0.13900582
53	0xbc7d8258	-0.015472971
54	0x3eb2bb05	0.3490831
55	0xbe4299e5	-0.19004019
56	0xbe84d799	-0.25945738
57	0xbe2a8eb6	-0.16656002
58	0x3cc60711	0.024173291
59	0xbe8a133f	-0.2696781
60	0x3c4eb95a	0.012617433
61	0xbe6c13e9	-0.2305447
62	0xbddb36f3	-0.1070384
63	0xbe22e80e	-0.15908834
